…
f the .required_grad’s set to the default\n","of True.\n","\n","\n","ResNet\n","~~~~~~~\n","\n","Resnet was introduced in the paper `Deep Residual Learning for Image\n","Recognition <https://arxiv.org/abs/1512.03385>`__. There are several\n","variants of different sizes, including Resnet18, Resnet34, Resnet50,\n","Resnet101, and Resnet152, all of which are available from torchvision\n","models. Here we use Resnet18, as our dataset is small and only has two\n","classes. When we print the model, we see that the last layer is a fully\n","connected layer as shown below:\n","\n","::\n","\n","   (fc): Linear(in_features=512, out_features=1000, bias=True) \n","\n","Thus, we must reinitialize ``model.fc`` to be a Linear layer with 512\n","input features and 2 output features with:\n","\n","::\n","\n","   model.fc = nn.Linear(512, num_classes)\n","   "]},{"cell_type":"code","execution_count":21,"metadata":{"colab":{"base_uri":"https://localhost:8080/"},"executionInfo":{"elapsed":267,"status":"ok","timestamp":1642917475537,"user":{"displayName":"Fatma Tanrıkulu","photoUrl":"https://lh3.googleusercontent.com/a/default-user=s64","userId":"06921373633394974062"},"user_tz":-180},"id":"LgxqnwJ1htzT","outputId":"dc06fcb9-0545-4266-d502-699071b41f44"},"outputs":[{"output_type":"stream","name":"stdout","text":["ResNet(\n","  (conv1): Conv2d(3, 64, kernel_size=(7, 7), stride=(2, 2), padding=(3, 3), bias=False)\n","  (bn1): BatchNorm2d(64, eps=1e-05, momentum=0.1, affine=True, track_running_stats=True)\n","  (relu): ReLU(inplace=True)\n","  (maxpool): MaxPool2d(kernel_size=3, stride=2, padding=1, dilation=1, ceil_mode=False)\n","  (layer1): Sequential(\n","    (0): BasicBlock(\n","      (conv1): Conv2d(64, 64, kernel_size=(3, 3), stride=(1, 1), padding=(1, 1), bias=False)\n","      (bn1): BatchNorm2d(64, eps=1e-05, momentum=0.1, affine=True, track_running_stats=True)\n","      (relu): ReLU(inplace=True)\n","      (conv2): Conv2d(64, 64, kernel_size=(3, 3), stride=(1, 1), padding=(1, 1), bias=False)\n","      (bn2): BatchNorm2d(64, eps=1e-05, momentum=0.1, affine=True, track_running_stats=True)\n","    )\n","    (1): BasicBlock(\n","      (conv1): Conv2d(64, 64, kernel_size=(3, 3), stride=(1, 1), padding=(1, 1), bias=False)\n","      (bn1): BatchNorm2d(64, eps=1e-05, momentum=0.1, affine=True, track_running_stats=True)\n","      (relu): ReLU(inplace=True)\n","      (conv2): Conv2d(64, 64, kernel_size=(3, 3), stride=(1, 1), padding=(1, 1), bias=False)\n","      (bn2): BatchNorm2d(64, eps=1e-05, momentum=0.1, affine=True, track_running_stats=True)\n","    )\n","  )\n","  (layer2): Sequential(\n","    (0): BasicBlock(\n","      (conv1): Conv2d(64, 128, kernel_size=(3, 3), stride=(2, 2), padding=(1, 1), bias=False)\n","      (bn1): BatchNorm2d(128, eps=1e-05, momentum=0.1, affine=True, track_running_stats=True)\n","      (relu): ReLU(inplace=True)\n","      (conv2): Conv2d(128, 128, kernel_size=(3, 3), stride=(1, 1), padding=(1, 1), bias=False)\n","      (bn2): BatchNorm2d(128, eps=1e-05, momentum=0.1, affine=True, track_running_stats=True)\n","      (downsample): Sequential(\n","        (0): Conv2d(64, 128, kernel_size=(1, 1), stride=(2, 2), bias=False)\n","        (1): BatchNorm2d(128, eps=1e-05, momentum=0.1, affine=True, track_running_stats=True)\n","      )\n","    )\n","    (1): BasicBlock(\n","      (conv1): Conv2d(128, 128, kernel_size=(3, 3), stride=(1, 1), padding=(1, 1), bias=False)\n","      (bn1): BatchNorm2d(128, eps=1e-05, momentum=0.1, affine=True, track_running_stats=True)\n","      (relu): ReLU(inplace=True)\n","      (conv2): Conv2d(128, 128, kernel_size=(3, 3), stride=(1, 1), padding=(1, 1), bias=False)\n","      (bn2): BatchNorm2d(128, eps=1e-05, momentum=0.1, affine=True, track_running_stats=True)\n","    )\n","  )\n","  (layer3): Sequential(\n","    (0): BasicBlock(\n","      (conv1): Conv2d(128, 256, kernel_size=(3, 3), stride=(2, 2), padding=(1, 1), bias=False)\n","      (bn1): BatchNorm2d(256, eps=1e-05, momentum=0.1, affine=True, track_running_stats=True)\n","      (relu): ReLU(inplace=True)\n","      (conv2): Conv2d(256, 256, kernel_size=(3, 3), stride=(1, 1), padding=(1, 1), bias=False)\n","      (bn2): BatchNorm2d(256, eps=1e-05, momentum=0.1, affine=True, track_running_stats=True)\n","      (downsample): Sequential(\n","        (0): Conv2d(128, 256, kernel_size=(1, 1), stride=(2, 2), bias=False)\n","        (1): BatchNorm2d(256, eps=1e-05, momentum=0.1, affine=True, track_running_stats=True)\n","      )\n","    )\n","    (1): BasicBlock(\n","      (conv1): Conv2d(256, 256, kernel_size=(3, 3), stride=(1, 1), padding=(1, 1), bias=False)\n","      (bn1): BatchNorm2d(256, eps=1e-05, momentum=0.1, affine=True, track_running_stats=True)\n","      (relu): ReLU(inplace=True)\n","      (conv2): Conv2d(256, 256, kernel_size=(3, 3), stride=(1, 1), padding=(1, 1), bias=False)\n","      (bn2): BatchNorm2d(256, eps=1e-05, momentum=0.1, affine=True, track_running_stats=True)\n","    )\n","  )\n","  (layer4): Sequential(\n","    (0): BasicBlock(\n","      (conv1): Conv2d(256, 512, kernel_size=(3, 3), stride=(2, 2), padding=(1, 1), bias=False)\n","      (bn1): BatchNorm2d(512, eps=1e-05, momentum=0.1, affine=True, track_running_stats=True)\n","      (relu): ReLU(inplace=True)\n","      (conv2): Conv2d(512, 512, kernel_size=(3, 3), stride=(1, 1), padding=(1, 1), bias=False)\n","      (bn2): BatchNorm2d(512, eps=1e-05, momentum=0.1, affine=True, track_running_stats=True)\n","      (downsample): Sequential(\n","        (0): Conv2d(256, 512, kernel_size=(1, 1), stride=(2, 2), bias=False)\n","        (1): BatchNorm2d(512, eps=1e-05, momentum=0.1, affine=True, track_running_stats=True)\n","      )\n","    )\n","    (1): BasicBlock(\n","      (conv1): Conv2d(512, 512, kernel_size=(3, 3), stride=(1, 1), padding=(1, 1), bias=False)\n","      (bn1): BatchNorm2d(512, eps=1e-05, momentum=0.1, affine=True, track_running_stats=True)\n","      (relu): ReLU(inplace=True)\n","      (conv2): Conv2d(512, 512, kernel_size=(3, 3), stride=(1, 1), padding=(1, 1), bias=False)\n","      (bn2): BatchNorm2d(512, eps=1e-05, momentum=0.1, affine=True, track_running_stats=True)\n","    )\n","  )\n","  (avgpool): AdaptiveAvgPool2d(output_size=(1, 1))\n","  (fc): Linear(in_features=512, out_features=8, bias=True)\n",")\n"]}],"source":["def initialize_model(model_name, num_classes, feature_extract, use_pretrained=True):\n","    # Initialize these variables which will be set in this if statement. Each of these\n","    #   variables is model specific.\n","    model_ft = None\n","    input_size = 0\n","\n","    if model_name == \"resnet\":\n","        \"\"\" Resnet18
…
